[Pipeline] Model type : waternet
[Pipeline] Image size : (224, 224)
[Pipeline] Output dir : /content/drive/MyDrive/agua/v2/watenet/run_01
[Pipeline] Dataset loaded: 10,517 rows
[Split]  train=7,365  val=1,574  test=1,578  total=10,517
[Scaler]   mean=288.1 cm  std=225.3 cm

Model: "WaterNet_CustomCNN"
┏━━━━━━━━━━━━━━━━━━━━━━━━━━━━━━━━━┳━━━━━━━━━━━━━━━━━━━━━━━━┳━━━━━━━━━━━━━━━┓
┃ Layer (type)                    ┃ Output Shape           ┃       Param # ┃
┡━━━━━━━━━━━━━━━━━━━━━━━━━━━━━━━━━╇━━━━━━━━━━━━━━━━━━━━━━━━╇━━━━━━━━━━━━━━━┩
│ image_input (InputLayer)        │ (None, 224, 224, 1)    │             0 │
├─────────────────────────────────┼────────────────────────┼───────────────┤
│ conv_0_a (Conv2D)               │ (None, 224, 224, 32)   │           832 │
├─────────────────────────────────┼────────────────────────┼───────────────┤
│ conv_0_b (Conv2D)               │ (None, 224, 224, 32)   │        25,632 │
├─────────────────────────────────┼────────────────────────┼───────────────┤
│ pool_0 (MaxPooling2D)           │ (None, 112, 112, 32)   │             0 │
├─────────────────────────────────┼────────────────────────┼───────────────┤
│ conv_1_a (Conv2D)               │ (None, 112, 112, 64)   │        51,264 │
├─────────────────────────────────┼────────────────────────┼───────────────┤
│ conv_1_b (Conv2D)               │ (None, 112, 112, 64)   │       102,464 │
├─────────────────────────────────┼────────────────────────┼───────────────┤
│ pool_1 (MaxPooling2D)           │ (None, 56, 56, 64)     │             0 │
├─────────────────────────────────┼────────────────────────┼───────────────┤
│ conv_2_a (Conv2D)               │ (None, 56, 56, 128)    │       204,928 │
├─────────────────────────────────┼────────────────────────┼───────────────┤
│ conv_2_b (Conv2D)               │ (None, 56, 56, 128)    │       409,728 │
├─────────────────────────────────┼────────────────────────┼───────────────┤
│ pool_2 (MaxPooling2D)           │ (None, 28, 28, 128)    │             0 │
├─────────────────────────────────┼────────────────────────┼───────────────┤
│ drop_conv_2 (Dropout)           │ (None, 28, 28, 128)    │             0 │
├─────────────────────────────────┼────────────────────────┼───────────────┤
│ conv_3_a (Conv2D)               │ (None, 28, 28, 256)    │       819,456 │
├─────────────────────────────────┼────────────────────────┼───────────────┤
│ conv_3_b (Conv2D)               │ (None, 28, 28, 256)    │     1,638,656 │
├─────────────────────────────────┼────────────────────────┼───────────────┤
│ pool_3 (MaxPooling2D)           │ (None, 14, 14, 256)    │             0 │
├─────────────────────────────────┼────────────────────────┼───────────────┤
│ drop_conv_3 (Dropout)           │ (None, 14, 14, 256)    │             0 │
├─────────────────────────────────┼────────────────────────┼───────────────┤
│ gap (GlobalAveragePooling2D)    │ (None, 256)            │             0 │
├─────────────────────────────────┼────────────────────────┼───────────────┤
│ dense_0 (Dense)                 │ (None, 512)            │       131,584 │
├─────────────────────────────────┼────────────────────────┼───────────────┤
│ drop_dense_0 (Dropout)          │ (None, 512)            │             0 │
├─────────────────────────────────┼────────────────────────┼───────────────┤
│ dense_1 (Dense)                 │ (None, 256)            │       131,328 │
├─────────────────────────────────┼────────────────────────┼───────────────┤
│ drop_dense_1 (Dropout)          │ (None, 256)            │             0 │
├─────────────────────────────────┼────────────────────────┼───────────────┤
│ dense_2 (Dense)                 │ (None, 128)            │        32,896 │
├─────────────────────────────────┼────────────────────────┼───────────────┤
│ drop_dense_2 (Dropout)          │ (None, 128)            │             0 │
├─────────────────────────────────┼────────────────────────┼───────────────┤
│ output (Dense)                  │ (None, 1)              │           129 │
└─────────────────────────────────┴────────────────────────┴───────────────┘
 Total params: 3,548,897 (13.54 MB)
 Trainable params: 3,548,897 (13.54 MB)
 Non-trainable params: 0 (0.00 B)

[Compile] lr=0.001  weight_decay=0.01  huber_delta=1.0
[Compile] Trainable params: 3,548,897
Epoch 1/100
58/58 ━━━━━━━━━━━━━━━━━━━━ 0s 4s/step - loss: 0.4385 - mae: 0.8252 - rmse: 1.0534
Epoch 1: val_loss improved from None to 0.42905, saving model to /content/drive/MyDrive/agua/v2/watenet/run_01/checkpoints/model_01_valloss0.4291.keras
…
